Lenet.pth (torch, 487471 bytes, 10 tensors)

conv1.weight f4 [16, 3, 5, 5]
0	0xbcba5f97	-0.022750659
1	0x3d07b21d	0.033128846
2	0xbe691f6e	-0.22765896
3	0xbcc1184c	-0.023571156
4	0xbd13c0c2	-0.0360725
5	0x3cfdb584	0.030970342
6	0xbe744c5f	-0.23857258
7	0xbe6a2a99	-0.22867812
8	0xbcdd9225	-0.027047226
9	0xbd81968b	-0.06327542
10	0xbe08ff12	-0.13378552
11	0xbd8e3557	-0.069437675
12	0x3e0e402c	0.13891667
13	0x3b9deda2	0.004819588
14	0x3d07e81a	0.033180334
15	0xbdea2380	-0.11432552
16	0xbda3fffc	-0.080078095
17	0x3e424d6a	0.18974844
18	0x3ccf6145	0.025314936
19	0x3d8e1fc5	0.06939653
20	0xbb079b95	-0.00206921
21	0x3e3b78f5	0.1830786
22	0x3db89a6e	0.0901383
23	0x3cc76c19	0.024343537
24	0xbd9ad1db	-0.07559558
25	0x3e1cf06b	0.15326087
26	0xbd83a148	-0.06427246
27	0xbdccb35f	-0.0999515
28	0xbdf34f72	-0.11880387
29	0xbcf7d963	-0.030255025
30	0xbd727972	-0.05919785
31	0xbc1e0c70	-0.00964652
32	0xbe273328	-0.16328108
33	0xbcebfd54	-0.02880732
34	0x3d839b28	0.06426078
35	0x3d4ad456	0.049518906
36	0xbd984611	-0.07435239
37	0x3e61bb6d	0.22044154
38	0x3e41c948	0.18924439
39	0x3e21d3db	0.15803473
40	0x3d761e1d	0.060087312
41	0x3d159884	0.036522403
42	0x3de07d55	0.10961405
43	0x3e4581f9	0.19287862
44	0xbd1ebb07	-0.038752582
45	0x3dd9719f	0.10617375
46	0x3dc12b17	0.09432047
47	0x3e088906	0.1333352
48	0x3c6dac02	0.014506342
49	0x3d8ed606	0.069744155
50	0x3d4bfa0a	0.049799003
51	0xbd2e4097	-0.042542066
52	0xbe1b4b42	-0.15165427
53	0xbcd8f6a4	-0.026484795
54	0xbd6c4481	-0.057682518
55	0xbd94ebab	-0.072715126
56	0xbd865f5d	-0.06561158
57	0xbe0c5c33	-0.13707046
58	0x3d844dcd	0.06460152
59	0x3e0ba097	0.13635479
60	0xbe0bb97c	-0.13644975
61	0xbdf1d74c	-0.11808643
62	0x3dc1ee2f	0.09469258
63	0x3de0f422	0.10984065
64	0xbda7a3a1	-0.081855066
65	0xbde62f9f	-0.11239552
66	0x3b70d000	0.0036745071
67	0x3e2d5cf5	0.16929992
68	0x3c0cb83d	0.008588848
69	0x3cf70820	0.030155241
70	0x3dc0cb16	0.094137356
71	0x3e0a39ee	0.13498661
72	0xbdee0c1e	-0.11623405
73	0xbe13bcb5	-0.14427455
74	0xbaf354a4	-0.0018564654
75	0xbc6e5426	-0.01454643
76	0x3c8ab736	0.016933065
77	0xbddd7233	-0.108127974
78	0xbd624ada	-0.055247165
79	0xbd1759fd	-0.036951054
80	0xbcee6833	-0.02910242
81	0xbdab3753	-0.08360162
82	0xbdd7df7f	-0.10540675
83	0xbe489d53	-0.19591264
84	0xbdaded36	-0.0849251
85	0x3b9146b4	0.0044334773
86	0xbe06f677	-0.13179956
87	0xbc83f04c	-0.016105793
88	0xbe293689	-0.1652471
89	0xbe29e164	-0.16589886
90	0xbde13a3e	-0.10997437
91	0x3ca517b7	0.02015291
92	0xbc9b2d58	-0.01894252
93	0xbde1af23	-0.11019733
94	0x3d15e8ec	0.036599085
95	0xbd9064c2	-0.07050468
96	0xbdb96b64	-0.09053686
97	0xbe4e8119	-0.20166434
98	0xbe3cfcde	-0.18455836
99	0xbd463fc6	-0.048400663
100	0xbcff2d1f	-0.031149445
101	0x3d6c1230	0.057634532
102	0x3d6ffb0c	0.058589026
103	0xbda37c7b	-0.07982727
104	0x3d133711	0.035941187
105	0xbc17cba9	-0.009264865
106	0x3cba9314	0.02277521
107	0x3bf3ad96	0.0074364645
108	0x3dd44415	0.10364548
109	0xbd2eab76	-0.042643987
110	0x3d8d7183	0.06906416
111	0xbcf21b16	-0.029553931
112	0xbcac3d38	-0.021025285
113	0x3d973662	0.073834196
114	0x3d6dbcce	0.058041386
115	0x3d2410ed	0.040055204
116	0xbc6cb06c	-0.014446359
117	0x3dcd931e	0.10037826
118	0x3d52f81b	0.051506143
119	0xbdbbb8bc	-0.09166095
120	0x3c6f642d	0.014611286
121	0x3cda64d2	0.026659403
122	0xbdf699bc	-0.12041041
123	0x3dbb590a	0.09147842
124	0xbd9ce15f	-0.076601736
125	0xbd6d7ad6	-0.057978474
126	0xbd3db15c	-0.04631172
127	0x3ce6b05b	0.028160265
128	0x3df94661	0.12171627
129	0x3a80cdd2	0.0009826964
130	0xbc10a8e2	-0.008829327
131	0x3b668092	0.0035171849
132	0x3e318bad	0.17338438
133	0x3e11c170	0.14233947
134	0x3e2265cc	0.15859145
135	0x3da6b6b3	0.08140316
136	0x3e1383cd	0.14405747
137	0x3cf52656	0.029925507
138	0x3d9ff5fb	0.07810589
139	0x3e424b61	0.18974067
140	0x3d127fd7	0.03576645
141	0x3dab122f	0.083530776
142	0x3cde9787	0.027171863
143	0x3d9c21c0	0.07623625
144	0x3c17ed73	0.009272921
145	0xbd98940c	-0.07450113
146	0x3d195cbb	0.03744195
147	0x3e1a78d2	0.15085152
148	0x3e2e028c	0.16993159
149	0x3de3c6bb	0.11121889
150	0xbdd74c76	-0.10512631
151	0x3e38e912	0.1805766
152	0xbd6c5c2a	-0.057705082
153	0xbe12bf64	-0.14330822
154	0xbde2b301	-0.110692985
155	0xbd44f7f6	-0.048088036
156	0xbe5cb091	-0.2155173
157	0x3c45bc5e	0.012068836
158	0x3e1921ae	0.14954254
159	0xbe03debd	-0.12877937
160	0x3daa33bb	0.08310648
161	0xbe365474	-0.17805654
162	0xbcdae52f	-0.026720611
163	0x3e38be85	0.18041427
164	0xbd646241	-0.055757765
165	0xbd037c5a	-0.032101013
166	0xbdfeedb9	-0.12447686
167	0xbe55c521	-0.2087598
168	0x3dc063f7	0.09394067
169	0x3e03a943	0.12857537
170	0x3c20c4fb	0.009812589
171	0xbd8ce402	-0.068794265
172	0xbd975319	-0.073888965
173	0xbe0715a0	-0.13191843
174	0x3e49ea9f	0.19718407
175	0x3dcc07aa	0.09962399
176	0x3e56fbdd	0.20994516
177	0x3c04ff3b	0.008117492
178	0xbdc6aa18	-0.097004116
179	0x3e32aed2	0.17449501
180	0x3e269854	0.16269046
181	0xbdf15696	-0.11784093
182	0x3b874215	0.0041277506
183	0x3def27d7	0.11677521
184	0xbcc43a02	-0.023953442
185	0xbc1d7791	-0.009611026
186	0xbe17add3	-0.14812402
187	0x3cc554f0	0.024088353
188	0x3e91bfe2	0.28466707
189	0xbde89ca3	-0.11358001
190	0xbda26eb7	-0.079312734
191	0xbc83311e	-0.016014632
192	0xbd16b517	-0.036793794
193	0x3e1588b6	0.14602932
194	0x3e6c9e42	0.23107246
195	0xbd66268e	-0.056189112
196	0x3daf0c95	0.08547322
197	0xbd8e2440	-0.06940508
198	0xbe30d0c9	-0.17267145
199	0x3e888d7b	0.2667044
200	0xbd9ffb02	-0.07811548
201	0x3d075266	0.033037566
202	0xbd1a4103	-0.037659656
203	0xbe160250	-0.1464932
204	0xbd8a3196	-0.06747739
205	0x3dbba630	0.09162557
206	0xbe19dcfb	-0.15025704
207	0x3e0dd9f2	0.13852671
208	0x3de49533	0.1116127
209	0xbd803001	-0.06259156
210	0xbc97ae71	-0.018515797
211	0xbe0abe8b	-0.13549249
212	0xbc95d243	-0.018288737
213	0x3e39e0a5	0.18152101
214	0xbe3101ef	-0.17285894
215	0x3c009759	0.007848584
216	0x3d0c0569	0.034184847
217	0x3d2bdc26	0.041957997
218	0xbde12230	-0.10992849
219	0x3dbfbecd	0.09362564
220	0xbd032979	-0.032021973
221	0x3bd06a50	0.0063603297
222	0xbe248db0	-0.16069674
223	0xbdda5f16	-0.106626675
224	0x3dc043ae	0.09387909
225	0xbdc550a2	-0.0963452
226	0xbd94689b	-0.072465144
227	0xbd4be764	-0.04978122
228	0x3d9b3e18	0.07580203
229	0x3d187d6a	0.03722898
230	0xbd9c1675	-0.07621471
231	0xbe075ab8	-0.132182
232	0xbda07148	-0.07834107
233	0x3cd66b00	0.026174068
234	0x3dbef98a	0.093249395
235	0xbe242abc	-0.16031927
236	0xbe219a10	-0.15781426
237	0xbd871dde	-0.065974936
238	0x3dcadf21	0.0990584
239	0xbd847c42	-0.06469013
240	0xbe0fe10a	-0.1405069
241	0x3c84311e	0.016136702
242	0x3d82bdab	0.063838325
243	0xbd9f6e09	-0.077846594
244	0x3df6a7a9	0.120436974
245	0x3cf52686	0.029925596
246	0x3d906547	0.07050567
247	0xbdb0e5c5	-0.08637575
248	0x3e057ff4	0.13037091
249	0xbd52e93f	-0.051491972
250	0x3ce35d55	0.027754465
251	0xbd974307	-0.07385831
252	0x3d357ed3	0.044310402
253	0xbdcc88e3	-0.099870466
254	0xbda8c109	-0.082399435
255	0xbdbf34fe	-0.09336279

conv1.bias f4 [16]
0	0xbd92da0c	-0.071704954
1	0x3e5a605c	0.2132582
2	0xbd238cbc	-0.039929137
3	0xbe393c17	-0.18089329
4	0xbd60c2c2	-0.054873236
5	0xbe348329	-0.17628159
6	0xbe020654	-0.12697726
7	0xbe01eb11	-0.12687327
8	0xbe0bc674	-0.13649923
9	0xbe905a30	-0.28193808
10	0xbe222932	-0.15836027
11	0xbd20bd9b	-0.039243322
12	0x3e3552f6	0.17707428
13	0xbe544994	-0.20731193
14	0xbd92ecde	-0.07174085
15	0xbd6ff725	-0.058585305

conv2.weight f4 [32, 16, 5, 5]
0	0x3dcd5870	0.10026634
1	0xbdd37373	-0.103247546
2	0xbe2633c8	-0.1623069
3	0xbdf865c5	-0.12128786
4	0xbd6551c3	-0.055986177
5	0xbcd55726	-0.026042532
6	0xbe8a5f3f	-0.27025792
7	0xbe43ce1a	-0.1912159
8	0xbda6ccc5	-0.081445254
9	0x3b9d28ad	0.0047961087
10	0xbd8b3c84	-0.06798652
11	0xbe4416cb	-0.1914932
12	0xbd62114b	-0.055192273
13	0x3da496eb	0.08036598
14	0x3dc0a506	0.09406476
15	0xbd684a8d	-0.056711722
16	0xbd7fe82f	-0.062477287
17	0xbb8459c2	-0.0040390203
18	0x3cafaee1	0.021445693
19	0x3c3f734c	0.011685204
20	0xbd0860bf	-0.03329539
21	0x3ce6611b	0.028122475
22	0xba5fcfc3	-0.0008537734
23	0xbafd383d	-0.0019319128
24	0x3c964a62	0.018346015
25	0xbe056350	-0.13026166
26	0xbe02f697	-0.12789379
27	0xbdf59166	-0.11990623
28	0xbdd1ddb7	-0.10247367
29	0x3c8069d7	0.015675468
30	0xbe11982f	-0.1421821
31	0xbe0923ab	-0.13392513
32	0xbe01c6f1	-0.12673546
33	0xbcd99287	-0.026559127
34	0x3d095d30	0.033536136
35	0xbdf4111b	-0.11917325
36	0xbd78cdeb	-0.060743254
37	0xbd2ef468	-0.042713553
38	0xbca35b57	-0.019941015
39	0x3cd09954	0.025463738
40	0xbd276988	-0.040872127
41	0x3dc8a25f	0.09796595
42	0x3cc090d1	0.023506554
43	0x3cb058c2	0.021526698
44	0x3d819961	0.06328083
45	0x3cf0e31c	0.02940517
46	0x3de8fdf6	0.11376564
47	0x3e2241b5	0.15845378
48	0x3d891827	0.0669406
49	0x3d1072ea	0.03526584
50	0xbd759acc	-0.05996208
51	0xbdac82cf	-0.08423387
52	0xbdbf608d	-0.093445875
53	0xbda3534f	-0.07974874
54	0xbdb38d61	-0.087672
55	0xbdc66785	-0.096877135
56	0xbdd4e293	-0.10394778
57	0xbce50f65	-0.027961442
58	0xbc598777	-0.013276926
59	0xbdbdd27a	-0.09268661
60	0xbdcc0e33	-0.09963646
61	0xbd9670b5	-0.07345716
62	0xbd48ee2b	-0.04905526
63	0xbb22d7cb	-0.002484786
64	0xbd9b69d8	-0.075885475
65	0xbe4acbe8	-0.19804347
66	0xbd41ece2	-0.04734505
67	0xbc311a91	-0.010809557
68	0x3adbb701	0.0016762913
69	0xbd8ad30c	-0.06778535
70	0xbe6dd482	-0.23225597
71	0xbdf33019	-0.11874408
72	0xbcb8a68c	-0.022540353
73	0xbdf515b7	-0.119670324
74	0xbdcf206f	-0.10113608
75	0x3c8b6214	0.01701454
76	0xbc879780	-0.016551733
77	0x3d22f7f0	0.039787233
78	0x3bd20dfc	0.0064103585
79	0x3da4e6fe	0.08051871
80	0xbd7f6c03	-0.062358867
81	0xbd8af2cb	-0.0678459
82	0xbd05b992	-0.032647677
83	0xbd9ca70d	-0.0764905
84	0x3d7e593d	0.062096823
85	0xbdd1ae70	-0.102383494
86	0xbe2786ab	-0.16359966
87	0xbd8a7ad6	-0.0676171
88	0xbd425a81	-0.047449593
89	0x3d26cee3	0.040724646
90	0x3ce0dc46	0.027448785
91	0xbdc55b14	-0.096365124
92	0xbd888f74	-0.066679865
93	0x3d02babd	0.03191637
94	0x3cba3f6e	0.022735324
95	0x3ccaed1a	0.024771262
96	0x3d3f9ac1	0.046778444
97	0x3c1b010f	0.009460702
98	0x3d84ef53	0.0649096
99	0x3da66f9f	0.08126759
100	0xbd82744e	-0.063698396
101	0xbe1b6a93	-0.15177374
102	0xbd8d96cd	-0.069135286
103	0xbde4e68b	-0.11176785
104	0xbd8cbb76	-0.06871693
105	0xbcb7bffa	-0.022430409
106	0xbd77803e	-0.060425036
107	0xbd342209	-0.04397777
108	0xbc3b8874	-0.011446107
109	0xbcfe1fd5	-0.031021038
110	0xbce3b0e5	-0.02779431
111	0xbd32ddcd	-0.043668557
112	0xbd1e179e	-0.03859674
113	0x3ccaca2e	0.02475461
114	0x3d7cd5e8	0.061727434
115	0xbd2a4cfe	-0.04157733
116	0xbd45fc09	-0.048336063
117	0x3d0ab014	0.033859327
118	0xbd253db1	-0.040342037
119	0x3c2bbed1	0.010482506
120	0xbe0b0466	-0.13575897
121	0xbd96a941	-0.07356501
122	0xbd7a84f1	-0.06116194
123	0xbd77c576	-0.060491048
124	0xbdce6d1f	-0.10079407
125	0x3d19f9a5	0.037591595
126	0xbd045255	-0.03230508
127	0x3bf60f01	0.007509113
128	0xbaadfe0d	-0.0013274566
129	0x3ce5c5f1	0.028048487
130	0xbd11c79f	-0.035590764
131	0x3cbc87f6	0.02301405
132	0xbce748ea	-0.02823301
133	0xbca06468	-0.019579127
134	0x3db78d9e	0.08962558
135	0xbd461f8e	-0.048369937
136	0xbcd54f35	-0.026038745
137	0xbd301c45	-0.04299571
138	0xbd128309	-0.035769496
139	0x3b7a5ba5	0.0038201597
140	0xbd346624	-0.04404272
141	0xbda25668	-0.07926637
142	0xbd527332	-0.05137939
143	0xbde6fd93	-0.11278834
144	0xbddd5591	-0.10807336
145	0xbd9413d7	-0.07230347
146	0xbe0108de	-0.12601039
147	0xbe801606	-0.25016803
148	0xbda685aa	-0.08130963
149	0xbe106d86	-0.1410428
150	0xbc45abe8	-0.012064911
151	0xbc31f59b	-0.01086178
152	0xbc8ec621	-0.01742846
153	0x3c17868f	0.00924839
154	0x3c1a7f29	0.009429731
155	0x3d06acd3	0.03287966
156	0x3b200f75	0.0024423276
157	0x3cde8076	0.027160864
158	0xbc597d21	-0.013274462
159	0x3cf3f5f7	0.029780371
160	0xbbcd4aa7	-0.006265003
161	0xbcae0e50	-0.02124706
162	0xbc7028e5	-0.0146581875
163	0xbd160932	-0.036629863
164	0x3cdbf814	0.026851691
165	0x3c8b04db	0.016970089
166	0x3cda6f39	0.026664363
167	0xbd3dbb9e	-0.046321504
168	0xbd7fdc74	-0.0624661
169	0x3d84664f	0.06464826
170	0xbcf376dd	-0.029719764
171	0xbdbb6f36	-0.09152071
172	0xbd624100	-0.05523777
173	0xbd0507e9	-0.032478247
174	0xbce51d16	-0.02796797
175	0x3cd716c4	0.026255973
176	0xbdf1001b	-0.11767598
177	0xbe80eb32	-0.2517944
178	0xbe519dbb	-0.20470326
179	0xbd8f8149	-0.07007081
180	0xbc4a6d72	-0.012355195
181	0xbe044ef9	-0.1292075
182	0xbe4fe2ba	-0.20301333
183	0xbd6b17e5	-0.057395834
184	0x3d997ad8	0.07494134
185	0x3c88a9ea	0.016682584
186	0xbc8d9145	-0.017281184
187	0xbd32bf41	-0.043639425
188	0x3db29af4	0.08720961
189	0x3e12a2a4	0.14319855
190	0xbcd0f0dd	-0.025505478
191	0xbd2f21c6	-0.04275682
192	0x3ce9a964	0.028523155
193	0x3d1ea7d6	0.03873428
194	0x3ca5da5c	0.020245723
195	0x3e03f76e	0.12887356
196	0x3d972b68	0.07381326
197	0x3d958291	0.07300294
198	0x3e09204f	0.13391231
199	0x3de6a299	0.11261482
200	0xbc52d132	-0.012867259
201	0xbd878832	-0.06617774
202	0xbe851b21	-0.2599726
203	0xbd9a7940	-0.07542658
204	0xbd0de054	-0.034637764
205	0xbd84f819	-0.064926334
206	0xbdb91aeb	-0.09038337
207	0xbe81b44f	-0.25332877
208	0xbd024f8d	-0.031814147
209	0x3d360011	0.044433657
210	0x3d8b4cf3	0.06801786
211	0xbbfc8ec8	-0.0077074505
212	0xbc8bdc46	-0.017072808
213	0x3dc32fba	0.095305875
214	0x3e1554ff	0.14583205
215	0x3d7471ca	0.05967883
216	0x3cc6096a	0.02417441
217	0x3cbec516	0.023287337
218	0x3d81d4ca	0.063394144
219	0x3d672191	0.056428496
220	0x3d86cc46	0.06581931
221	0x3da530d2	0.08065952
222	0x3d4474b7	0.04796287
223	0x3de5c194	0.11218563
224	0x3db3b032	0.08773841
225	0xbda3ef21	-0.080045946
226	0x3d263b1c	0.040583715
227	0x3a3a69c3	0.00071110966
228	0x3d44efd9	0.0480803
229	0x3ddf2e89	0.10897548
230	0xbd71e32a	-0.05905453
231	0xbd683458	-0.056690544
232	0xbc7645bc	-0.015031274
233	0x3d138906	0.036019348
234	0x3da5641a	0.080757335
235	0xbcf00a6e	-0.029301848
236	0xbd731d7e	-0.059354298
237	0x3d59925f	0.053118106
238	0x3d1a1434	0.037616923
239	0xbd9e488b	-0.0772868
240	0x3d034d81	0.032056335
241	0x3d5de942	0.05417753
242	0x3dbcc980	0.092181206
243	0x3dc2f95e	0.09520219
244	0xbddc5051	-0.10757507
245	0x3cfcfb4a	0.030881543
246	0x3d26519f	0.040605184
247	0x3cc08a8a	0.02350356
248	0xbcf01a5a	-0.02930944
249	0xbdf54d59	-0.119776435
250	0xbd9174ce	-0.07102357
251	0xbe390c53	-0.18071108
252	0xbde0dcb8	-0.10979599
253	0xbd384f23	-0.044997346
254	0x3dd2ee50	0.10299361
255	0xbe286379	-0.16444196

conv2.bias f4 [32]
0	0xbe05dfbf	-0.13073634
1	0x3d8c2558	0.0684306
2	0xbda24ff2	-0.079254046
3	0xbe0080fe	-0.12549207
4	0x3e60f18c	0.21967143
5	0xbcc4e939	-0.02403699
6	0xbdac239b	-0.08405229
7	0x3db57383	0.08859923
8	0xbd09ca8c	-0.03364043
9	0x3d8199d9	0.06328172
10	0x3e623365	0.22089918
11	0xbe60b0d9	-0.21942462
12	0xbd239a27	-0.039941933
13	0x3ebd7bbc	0.37008464
14	0x3dcb3d1a	0.099237636
15	0xbd99fba2	-0.07518698
16	0xbd31934f	-0.043353375
17	0x3e52640a	0.20545974
18	0x3ea35c18	0.319062
19	0x3db12b24	0.086508065
20	0xbd4600e0	-0.04834068
21	0x3c929f19	0.01789813
22	0xbe92adcd	-0.28648224
23	0x3dce8939	0.10084767
24	0x3e8d6dcb	0.27622828
25	0x3d94f8a0	0.07273984
26	0x3e2adff6	0.16686997
27	0x3da8a06e	0.082337245
28	0xbd4b15f9	-0.0495815
29	0x3e1efd88	0.15526402
30	0xbe8f3835	-0.2797257
31	0x3e8579f7	0.26069614

fc1.weight f4 [120, 800]
0	0xbd274232	-0.040834613
1	0xbd1ff3ad	-0.039050747
2	0xbbfd3fbc	-0.007728545
3	0xbc6249ff	-0.013811587
4	0xbc85f377	-0.016351445
5	0x3c7d3772	0.015455114
6	0x3caeca54	0.021336712
7	0x3bcddc01	0.00628233
8	0x3c8342c1	0.016023042
9	0x3baee44d	0.005337274
10	0x3bbb7b95	0.0057215192
11	0xbc46dbd8	-0.012137376
12	0x3c8e26a9	0.017352419
13	0x3ca14f44	0.019691117
14	0xbc7e4ef5	-0.0155217545
15	0x3cd85563	0.026407903
16	0xbcd73408	-0.026269928
17	0xbbc446a4	-0.0059898663
18	0xbb8c9277	-0.004289921
19	0xbd1f4d6b	-0.03889219
20	0x3cc2d85a	0.023784805
21	0x3a1d8de5	0.00060102186
22	0x3c6a0496	0.01428332
23	0x3c1c37ca	0.0095347855
24	0xbd212f50	-0.03935176
25	0xbcc555e0	-0.0240888
26	0xbc8df677	-0.017329438
27	0x3c7eb4ad	0.015546006
28	0x3ce2475e	0.027621921
29	0xbd06d143	-0.03291441
30	0x3c0e369c	0.008680012
31	0xbc47574e	-0.012166811
32	0xbd0653af	-0.03279465
33	0xbc98d1c9	-0.01865472
34	0xbb7de50a	-0.0038741254
35	0xbc357b44	-0.011076752
36	0x3bdd65ea	0.006756534
37	0xbcb4f984	-0.022091635
38	0x3b187353	0.0023262098
39	0x3c2919b8	0.010321073
40	0x3ce2e9f5	0.02769945
41	0x3cc67301	0.02422476
42	0xba2f19f5	-0.0006679588
43	0x3c72edc9	0.0148272
44	0xbd0ef8d0	-0.034905255
45	0xbd266a5f	-0.040628787
46	0xbd04ff84	-0.03247024
47	0xbc76cbda	-0.01506325
48	0xbbb58386	-0.0055393605
49	0xbbf8a448	-0.007587943
50	0x3c4095c5	0.011754458
51	0xbd289526	-0.041157864
52	0x3bb91f84	0.005649509
53	0x3c934be6	0.017980527
54	0xba1518d2	-0.00056875974
55	0xbc4ecba8	-0.012621798
56	0x3c491dcb	0.01227517
57	0xbd1c2757	-0.038123455
58	0xbd135921	-0.03597367
59	0xbc93fd2f	-0.018065063
60	0x3c3ac8a7	0.011400378
61	0xbd0bb5df	-0.034108993
62	0x3c95270a	0.018207092
63	0x3c06ed9c	0.008235361
64	0xbca11f2c	-0.019668184
65	0x3966454d	0.00021960326
66	0x3a79ac80	0.00095243007
67	0x3cc04931	0.0234724
68	0x3c2c06e8	0.010499693
69	0xbd1dbbc3	-0.03850914
70	0xbc55c06a	-0.013046363
71	0xbd148b53	-0.036265682
72	0x3c1691aa	0.009190002
73	0x3ccaed31	0.024771305
74	0x3ce86161	0.028366746
75	0xbd0b1e5e	-0.033964507
76	0x3c3aebc6	0.011408752
77	0x3b4ee9d8	0.0031572487
78	0xbd1d262d	-0.038366485
79	0xbcd9d324	-0.026589938
80	0x3c750c0f	0.014956488
81	0x3c2e7c74	0.010649789
82	0xbcc8f765	-0.02453203
83	0x3ce00cb3	0.027349805
84	0x3ce5709a	0.028007794
85	0xbc50a0f2	-0.012733685
86	0x3baeed12	0.0053383196
87	0xbb81d40e	-0.0039620465
88	0xbce56da8	-0.02800639
89	0xbcb15b00	-0.021649837
90	0xbba16bc2	-0.004926176
91	0x3cc0877e	0.023502108
92	0x3c752d2a	0.014964381
93	0xbc7436da	-0.014905656
94	0x3c7c97e2	0.015417071
95	0xbb3f9727	-0.002923438
96	0xbca63b7b	-0.020292034
97	0xbd0d3ff6	-0.034484826
98	0xbd238ef6	-0.03993126
99	0x3ab4a51f	0.001378212
100	0xb9da1491	-0.00041595523
101	0xbc9bf251	-0.019036444
102	0xbcade573	-0.021227574
103	0xbbf985b7	-0.007614817
104	0x3c92d115	0.017921964
105	0x3add2516	0.0016872014
106	0x3c1d1716	0.009588024
107	0xbced6116	-0.028976958
108	0xbd060653	-0.032720875
109	0xbc9b047a	-0.018923033
110	0xbd19b7b9	-0.037528727
111	0x3b9c52e8	0.0047706254
112	0x3ce188d6	0.027531069
113	0xbd0e10ca	-0.03468398
114	0xbd1ea910	-0.03873545
115	0x3ad63073	0.0016341343
116	0xbd0975f3	-0.03355975
117	0x3c916cb9	0.017752038
118	0xbb7bcc95	-0.00384215
119	0xbcdb978c	-0.026805662
120	0xbc632e11	-0.013865964
121	0x3b33761e	0.0027383636
122	0x3cb1a84a	0.021686692
123	0x3cd12d2d	0.025534237
124	0x3b221d16	0.0024736575
125	0xbcaf7813	-0.02141956
126	0xbd00cc28	-0.0314447
127	0x3c6a43a9	0.014298358
128	0xbd21d705	-0.0395117
129	0xbd0bbfd7	-0.0341185
130	0xbc123441	-0.008923591
131	0xba8ca01a	-0.0010728866
132	0xbc9b34d2	-0.018946085
133	0xbcdc6f51	-0.026908549
134	0xbd1a18ca	-0.037621297
135	0x3b82eaab	0.0039952598
136	0xbd27bc13	-0.040950846
137	0x3cd582ec	0.026063405
138	0x3c9c6f2f	0.019095985
139	0xbc46d64d	-0.012136054
140	0xbcabcde9	-0.020972209
141	0xbd08917e	-0.033341877
142	0xbb863d24	-0.004096644
143	0x3cdbb1b0	0.026818126
144	0xbd1bf171	-0.038072053
145	0x3c310045	0.010803287
146	0xbcde3fe0	-0.027130067
147	0xbcad24ea	-0.021135766
148	0xbd2450d5	-0.04011615
149	0x3c91faf5	0.017819861
150	0x3c0f475a	0.008745039
151	0xbcce53fb	-0.02518653
152	0xbcae547e	-0.021280523
153	0x3bfa9b57	0.0076479125
154	0xbd16d474	-0.036823705
155	0x3c89b809	0.016811388
156	0xbbb6cc62	-0.0055785635
157	0xbb90a65d	-0.0044143633
158	0xbd0a05e6	-0.03369703
159	0xbcff60c0	-0.031174064
160	0xb904f931	-0.00012681332
161	0xbc451d10	-0.012030855
162	0xbd0bf168	-0.03416577
163	0xbc6ac604	-0.014329437
164	0xbca1e6c8	-0.019763365
165	0xbceefea9	-0.029174166
166	0xbcd51bbc	-0.026014201
167	0x3aacf1d9	0.0013194635
168	0xbc88148e	-0.016611364
169	0x3cbcc4d2	0.02304307
170	0xbd03c279	-0.032167885
171	0xbca252c9	-0.019814866
172	0xbd059f39	-0.03262255
173	0x3c15b1c0	0.009136617
174	0x3af5aa27	0.0018742726
175	0xbd1e7a53	-0.038690876
176	0x3c54c5cd	0.0129866125
177	0xbb477f85	-0.0030440998
178	0xbc96f969	-0.018429475
179	0x3c526f3d	0.012843904
180	0xbc8198d2	-0.01581994
181	0x3c36ae79	0.011149996
182	0xbc20f41a	-0.009823823
183	0x3cccdef1	0.02500865
184	0x3cc72cf1	0.024313422
185	0xbd246432	-0.040134616
186	0x3cabe038	0.02098094
187	0xbcfd41f2	-0.030915234
188	0x3cd09a79	0.025464283
189	0xbb2d2c4f	-0.0026424115
190	0xbc200662	-0.009767147
191	0xbc4606e6	-0.012086606
192	0x3c73b28c	0.014874112
193	0x3c187808	0.009305961
194	0xbce1cf92	-0.027564798
195	0xbccb643a	-0.024828065
196	0xbb6e5763	-0.0036368005
197	0x3cc79b5c	0.024366073
198	0x3c8e866c	0.017398082
199	0xbb9a8ad5	-0.004716257
200	0xbc394b27	-0.011309422
201	0xbcba606a	-0.022751052
202	0xbc6f2ee9	-0.014598587
203	0xbb84969c	-0.0040462743
204	0xbd1f7c0d	-0.038936663
205	0xbb22a0eb	-0.0024815153
206	0xbd1ef5d6	-0.038808666
207	0x3cce6bc4	0.025197871
208	0x3b8943d3	0.0041889935
209	0xbcb96db0	-0.02263531
210	0xbcc27853	-0.023739016
211	0xbd058ebb	-0.03260682
212	0xbccb5f8c	-0.024825834
213	0x3cb8f745	0.022578845
214	0xbc6813e8	-0.014164902
215	0xbb8f60c6	-0.00437555
216	0xbc240e8c	-0.010013234
217	0xbd200fdd	-0.03907763
218	0xbb755589	-0.0037435016
219	0x3adeee40	0.001700826
220	0x3c2eec6f	0.010676487
221	0xbb876b4c	-0.004132664
222	0xbca19103	-0.019722467
223	0x3c10a5fb	0.008828635
224	0xbc08df4e	-0.008354021
225	0x3bcd9f03	0.006275059
226	0x3c64d534	0.013966847
227	0x3c923776	0.017848711
228	0xbb098074	-0.0020981105
229	0x3c64bf65	0.013961648
230	0x3c7e93fc	0.015538212
231	0xbca7949a	-0.020456601
232	0xbcc1d3ae	-0.023660507
233	0xbcc10230	-0.023560613
234	0x3bc3327b	0.0059569455
235	0xbba347fd	-0.004982947
236	0x3c845a65	0.016156385
237	0xbcf44ffd	-0.029823298
238	0xbcd8154c	-0.026377343
239	0x3b7f9373	0.0038997799
240	0xbd03718e	-0.032090716
241	0xbbecf37b	-0.0072311736
242	0x3ce51db3	0.027968263
243	0xb95b80d1	-0.00020933455
244	0xbccb161d	-0.024790818
245	0x3ca8069f	0.02051097
246	0xbbc6e906	-0.006070259
247	0xbca48510	-0.02008298
248	0x3ccde0ba	0.025131572
249	0xbba42301	-0.0050090556
250	0xbab62d46	-0.0013898991
251	0xbce5609d	-0.02800017
252	0x3ccae545	0.024767527
253	0xbd24539c	-0.0401188
254	0xbc8a874c	-0.016910218
255	0x3c9c793e	0.019100782

fc1.bias f4 [120]
0	0xbc2162f0	-0.009850249
1	0xbcae214f	-0.021256117
2	0xbd784842	-0.060615785
3	0xbe05a228	-0.13050139
4	0x3ddfd861	0.10929943
5	0x3d994df0	0.074855685
6	0x3e5e59cb	0.21713941
7	0x3c997f93	0.01873759
8	0xbd9d11a8	-0.07669383
9	0x3dc6bf2b	0.09704431
10	0x3e9039b8	0.28169036
11	0xbbf517da	-0.00747965
12	0x3e7bfc8e	0.2460806
13	0xbc530046	-0.012878483
14	0xbd00b48f	-0.031422194
15	0x3c811d32	0.015760992
16	0xbcb52e07	-0.022116674
17	0xbcbc0f71	-0.022956582
18	0xbd1a62b8	-0.0376918
19	0xbd87f7c5	-0.06639055
20	0xbd0d958c	-0.034566447
21	0xbba356d1	-0.0049847146
22	0x3ce70204	0.028199203
23	0xbd1f40d2	-0.038880177
24	0xbc921769	-0.017833428
25	0x3e1aec71	0.15129258
26	0x3ea8760d	0.32902566
27	0xbd5cad90	-0.05387646
28	0x3ec86790	0.39141512
29	0x3e4a3f3c	0.19750684
30	0x3e28ce1d	0.16484876
31	0xbe117f4e	-0.14208719
32	0xbd1f22a0	-0.03885138
33	0x3d9e398b	0.07725819
34	0xbcf62659	-0.030047582
35	0xbd015232	-0.03157253
36	0x3c8cba44	0.017178662
37	0xbd2fde3b	-0.042936545
38	0x3e0a624d	0.13514061
39	0xbd0cac08	-0.03434375
40	0x3db0dcae	0.08635841
41	0x3dfe5386	0.124182746
42	0x3c61a003	0.01377106
43	0x3e60e755	0.21963246
44	0xbd785b4e	-0.06063395
45	0xbd1a8385	-0.037723083
46	0xbd38ff88	-0.04516557
47	0xbd14d2da	-0.036333896
48	0xbdf8e5ea	-0.121532276
49	0x3e2b7544	0.16743952
50	0xbcc1dd39	-0.023665057
51	0xbcaacf94	-0.020850934
52	0x3c0e8f80	0.008701205
53	0xbc7453bf	-0.014912545
54	0xbcf3b54a	-0.029749531
55	0xbcf0ec90	-0.029409677
56	0xbd353979	-0.044244263
57	0x3e1d20b0	0.153445
58	0x3ce0eb42	0.02745593
59	0xbd840ed1	-0.064481385
60	0x3e0f9cc8	0.14024651
61	0x3bbb2d1b	0.005712164
62	0xbc3e2c4f	-0.011607244
63	0x3e02941e	0.12751815
64	0xbce54337	-0.027986152
65	0x3e2e2f91	0.17010333
66	0xbcfd0631	-0.030886741
67	0x3c9e5917	0.01932959
68	0x3e31e653	0.17373018
69	0x3b27d2c7	0.002560781
70	0xbe38d62a	-0.18050447
71	0x3e4f22c5	0.20228107
72	0xbab3b106	-0.0013709373
73	0xbad09795	-0.0015914316
74	0xbcd70a1d	-0.02624994
75	0xbd033343	-0.03203131
76	0xbd3658a5	-0.04451813
77	0xbc8368fd	-0.016041273
78	0xbde3c513	-0.11121573
79	0x3ba8a89e	0.005147054
80	0xbc8131d5	-0.015770832
81	0x3e2b8237	0.16748892
82	0xbcdf9200	-0.027291298
83	0xbd6ba113	-0.05752666
84	0x3cc21416	0.023691218
85	0xbc24cf61	-0.010059209
86	0xbd36481e	-0.04450237
87	0xbd1338f8	-0.035943
88	0xbd65a5a4	-0.05606617
89	0xbd41f69f	-0.047354337
90	0xbcbdc9c5	-0.0231675
91	0xbb38b5a8	-0.0028184447
92	0x3e5163b2	0.20448187
93	0x3e865a88	0.26240945
94	0xbbdcb865	-0.0067358487
95	0x3e9a2c04	0.30111706
96	0xbcbd56a0	-0.023112595
97	0xbcd8a7bf	-0.026447175
98	0x3d789044	0.060684457
99	0xbda1ffcb	-0.07910117
100	0xba9a4814	-0.0011770749
101	0xbd97dac8	-0.07414776
102	0xbd94ca0d	-0.07265101
103	0xbcd78185	-0.026306877
104	0xbdeed49d	-0.116616465
105	0x3d55b24b	0.052171987
106	0xbb195671	-0.002339747
107	0xbd09565f	-0.033529636
108	0x3afc0f96	0.0019230719
109	0xbe3f550a	-0.18684784
110	0xbdf0c268	-0.1175583
111	0xbc7a1b0f	-0.01526524
112	0xbdad1e65	-0.08453063
113	0xbbc7eeac	-0.00610145
114	0x3e10e8f2	0.14151362
115	0xbdaa1ab0	-0.083058715
116	0x3b5e9239	0.0033961667
117	0x3c329f63	0.010902259
118	0xbce722cb	-0.028214833
119	0xbc3c2b33	-0.011484909

fc2.weight f4 [84, 120]
0	0xbdbe8eb2	-0.09304561
1	0x3d90659b	0.0705063
2	0x3d120c92	0.03565652
3	0xbdf02a04	-0.11726764
4	0x3ac0effd	0.001471996
5	0x3c2c6d01	0.010524035
6	0x3e0a6238	0.1351403
7	0xbdf76238	-0.120792806
8	0x3baf7abe	0.005355208
9	0xbcb342e8	-0.02188249
10	0xbc43917c	-0.011936542
11	0xbd9ad109	-0.075594015
12	0xbd813002	-0.06307985
13	0xbd1f733e	-0.038928263
14	0xbd89b487	-0.06723886
15	0xbc8a01d4	-0.016846575
16	0xbcd43cd8	-0.025907919
17	0xbe0bf5d4	-0.13667995
18	0x3d65c4ac	0.056095764
19	0x3dc6431a	0.09680767
20	0xbda10703	-0.078626655
21	0xbe04c4e2	-0.1296573
22	0x3d505f77	0.050872292
23	0xbda47bfc	-0.08031461
24	0xbd6bcfd9	-0.057571266
25	0x3e6541e6	0.2238842
26	0x3dd38609	0.103282996
27	0xbd233523	-0.039845597
28	0x3e5c8534	0.21535188
29	0x3e009766	0.12557754
30	0xbcfba1d2	-0.03071681
31	0x3cb78a54	0.022404827
32	0xbdb067e3	-0.08613565
33	0xbdc0d044	-0.094147235
34	0x3d08e2af	0.033419307
35	0xbc956571	-0.018236848
36	0xbc9cc4c1	-0.019136788
37	0xbde121d4	-0.1099278
38	0xbc52c312	-0.012863891
39	0x3ce59acc	0.028027914
40	0xbd976762	-0.073927656
41	0xba96ef11	-0.0011515339
42	0x3d54f319	0.05198965
43	0x3e4daf39	0.20086373
44	0x3d0e04c5	0.034672517
45	0x3d4ed946	0.050500177
46	0x3d6f2546	0.058385156
47	0x3dd76ba2	0.10518576
48	0xbe82ab3a	-0.2552126
49	0xba418871	-0.0007382697
50	0x3d86347f	0.065529816
51	0xbe425542	-0.18977836
52	0x3d52cc0a	0.051464118
53	0x3d8c70db	0.06857463
54	0xbda852b0	-0.082188964
55	0xbddb59d6	-0.10710494
56	0xbdbaac8f	-0.09114944
57	0xbdadf480	-0.084939
58	0x3d372a8c	0.04471831
59	0xbe0389e0	-0.12845564
60	0x3e0af421	0.1356969
61	0xbd3e4fa4	-0.04646267
62	0xbd03fde7	-0.032224562
63	0x3d955893	0.07292285
64	0x3d8267e9	0.063674755
65	0xbd627a21	-0.055292252
66	0x3b3cd84f	0.0028815453
67	0xbd9195b2	-0.0710863
68	0x3cd42d5d	0.025900537
69	0xbd049d48	-0.032376558
70	0x3c991377	0.01868604
71	0xbe410eba	-0.18853274
72	0x3c1ae624	0.009454284
73	0xbd10fd47	-0.035397794
74	0x3d9778be	0.073960766
75	0x3c95e0b9	0.018295633
76	0x3c05b357	0.008160434
77	0x3b4ed3a4	0.0031559253
78	0xbdf6c670	-0.12049568
79	0x3cc555c2	0.024088744
80	0x3c351e39	0.011054569
81	0xbdbff433	-0.09372749
82	0x3d9d58fe	0.076829895
83	0x3d582bd5	0.052776176
84	0xbd32026c	-0.04345934
85	0x3c1bdb75	0.009512772
86	0xbd40832c	-0.047000095
87	0xbd98253d	-0.07428978
88	0x3d453e04	0.048154846
89	0x3e44d89a	0.19223252
90	0xbe68015b	-0.22656767
91	0xbcbce1fa	-0.023056973
92	0xbe1430d2	-0.14471748
93	0xbb91c99e	-0.0044490835
94	0xbdb4451c	-0.08802244
95	0x3e483bcb	0.19554059
96	0x3b42e079	0.0029735847
97	0xbd291fb9	-0.04129002
98	0xbe02f08d	-0.12787075
99	0xbc84120a	-0.016121883
100	0x3d293914	0.0413142
101	0x3d65121b	0.05592547
102	0x3ceba10d	0.028763318
103	0x3ddb60d8	0.10711831
104	0x3d8fdfdf	0.07025122
105	0xbe05f3f6	-0.13081345
106	0xbdc7937f	-0.097449295
107	0xbd2df6f4	-0.04247184
108	0x3da87784	0.08225921
109	0x3d84856a	0.06470759
110	0x3dac86d5	0.08424155
111	0xbea424f3	-0.3205944
112	0xbc18d82a	-0.009328881
113	0x3cc0eebd	0.02355134
114	0x3df3625a	0.118839934
115	0xbd7b06b4	-0.06128569
116	0x3d885f67	0.066588216
117	0xbd50120d	-0.050798465
118	0xbcae553b	-0.021280875
119	0x3d47f4ac	0.04881732
120	0xbcee3407	-0.029077543
121	0xbb6a1e47	-0.0035723613
122	0xbd3982fe	-0.04529094
123	0xbba2da48	-0.004969869
124	0xbd913b66	-0.070914075
125	0x3d272d09	0.040814433
126	0x3db42208	0.087955534
127	0xbc809bd2	-0.0156993
128	0xbda42570	-0.08014953
129	0x3d6835a7	0.05669179
130	0xbb234aeb	-0.002491648
131	0xbd97c303	-0.074102424
132	0x3db1fdac	0.08690962
133	0x3b539c88	0.0032289345
134	0x3d4f93c1	0.05067802
135	0xbd9df1fc	-0.077121705
136	0x3d3f664b	0.046728414
137	0x3e2d0fcb	0.16900556
138	0x3c362ef6	0.011119595
139	0xbd95b8e8	-0.07310659
140	0x3d6f04a7	0.058354046
141	0xbd3770b5	-0.04478522
142	0x3d847ce9	0.06469137
143	0xbdc7e6cb	-0.09760817
144	0x3da2ebf9	0.079551645
145	0x3d6f4286	0.05841305
146	0x3e4f0517	0.20216785
147	0x3e181cfe	0.1485481
148	0x3d33c440	0.04388833
149	0x3cf46c78	0.029836878
150	0x3d4a0359	0.0493196
151	0xbde0ae6a	-0.10970767
152	0x3db3934c	0.08768329
153	0xbe0f6102	-0.1400185
154	0xbda05b71	-0.07829941
155	0xbda496b3	-0.08036556
156	0x3cb1bc33	0.021696186
157	0xbda73578	-0.08164495
158	0x3d4e5d3d	0.050381888
159	0x3bb0ba00	0.0053932667
160	0xbcd2601b	-0.025680592
161	0x3e7e9a6b	0.24863593
162	0x3c21dc40	0.009879172
163	0x3beb90bf	0.007188886
164	0x3cbb33f3	0.02285192
165	0xbd4e166c	-0.050314352
166	0x3da1043b	0.07862135
167	0x3c33076f	0.010927065
168	0x3d2b750b	0.041859668
169	0x3e11a55a	0.14223233
170	0x3d8ed7ce	0.06974755
171	0x3ac3ea86	0.0014947213
172	0xbcd47d03	-0.025938516
173	0x3d39c4bd	0.04535364
174	0x3d3fd085	0.04682972
175	0xbdfa7e47	-0.12231117
176	0xbc8925d9	-0.01674168
177	0x3ce7d813	0.028301274
178	0x3d91897e	0.07106303
179	0xbd6c4506	-0.057683013
180	0xbd856667	-0.06513672
181	0xbd9091a3	-0.07059028
182	0xbcad4f5a	-0.021156002
183	0x3b96c56f	0.0046011726
184	0xbc291ad6	-0.01032134
185	0xbcef7e0f	-0.029234914
186	0xbd1e1560	-0.038594604
187	0x3e0ba66e	0.13637707
188	0x3d6359db	0.055505615
189	0xbd39b9b6	-0.045343123
190	0xbd2951de	-0.04133784
191	0x3e1bee97	0.15227734
192	0x3bf580bb	0.0074921525
193	0xbd3f3858	-0.046684593
194	0xbcda6768	-0.026660636
195	0x3c8a629e	0.016892727
196	0x3d614317	0.054995622
197	0x3cd2bd14	0.025724925
198	0xbbd61d22	-0.0065342346
199	0xbc59029e	-0.013245253
200	0xbd448be7	-0.047984984
201	0xbc9475db	-0.018122604
202	0xbd9cbf16	-0.07653634
203	0xbe2041f6	-0.15650162
204	0x3e1014ab	0.14070384
205	0x3d1a0436	0.037601672
206	0x3b868311	0.00410498
207	0x3dc488d0	0.095964074
208	0x3d68412a	0.05670277
209	0x3d6ed537	0.058308806
210	0x3df0a9cd	0.11751137
211	0x3db002ed	0.08594308
212	0xbd52eabc	-0.05149339
213	0xbca64e4b	-0.020301005
214	0x3b9b7fa7	0.004745442
215	0x3e112a7e	0.14176366
216	0x3d18651b	0.037205797
217	0xbccf0803	-0.025272375
218	0x3d4561be	0.048188917
219	0x3d889645	0.06669287
220	0xbd5c7df1	-0.053831045
221	0x3ca6ef64	0.020377822
222	0xbdba81e4	-0.09106806
223	0x3deeae6d	0.11654363
224	0x3c794e98	0.015216492
225	0xbdc2d474	-0.095131785
226	0x3d9d93a3	0.07694175
227	0xbdb957a6	-0.09049921
228	0xbc984fa2	-0.01859266
229	0xbe0689d9	-0.13138522
230	0xbda13e7a	-0.078732446
231	0xbcac7af9	-0.021054732
232	0xbe0754ff	-0.13216017
233	0x3c80a625	0.015704224
234	0x3d526254	0.051363304
235	0xbac8799a	-0.0015295029
236	0xbdbcd346	-0.09219985
237	0x3d0510fd	0.032486904
238	0xbd9baaa7	-0.07600909
239	0x3d3259e1	0.043542746
240	0x3dab16a2	0.08353926
241	0x3d1f3a60	0.03887403
242	0x3e49801c	0.19677776
243	0x3cbbfb3f	0.022946952
244	0xbba3f3e9	-0.0050034416
245	0x3c217ad0	0.009855941
246	0x3d3a5aff	0.045496937
247	0xbcf9c843	-0.030491
248	0x3d8c3df0	0.06847751
249	0x3b42ec8c	0.0029743044
250	0x3ddc0f93	0.10745158
251	0x3d72a008	0.05923465
252	0xbe04e33f	-0.12977313
253	0xbcd4cad9	-0.025975632
254	0x3d34596c	0.04403059
255	0xbb7c8760	-0.0038532838

fc2.bias f4 [84]
0	0x3eb84e87	0.35997412
1	0x3eb974e1	0.36221984
2	0x3e2b8de3	0.16753344
3	0xbd1964bc	-0.037449583
4	0x3d8868a4	0.066605836
5	0x3e83425a	0.2563656
6	0x3d5376da	0.051627018
7	0x3e8ec937	0.2788789
8	0x3d57e494	0.052708223
9	0xbdef5c0c	-0.116874784
10	0xbc0187a0	-0.007905871
11	0x3e305da8	0.17223227
12	0xbb617a1f	-0.0034405065
13	0xbd6a7d86	-0.057248615
14	0xbd8ddf46	-0.06927352
15	0xbdc2d31a	-0.09512921
16	0x3e41123b	0.1885461
17	0x3e085b23	0.13316016
18	0x3e0bc2c8	0.13648522
19	0x3e180fe1	0.14849807
20	0x3e3e29e7	0.18570672
21	0xbdb0bc3e	-0.08629654
22	0x3e4cf6bf	0.20016001
23	0xbdab0c71	-0.083519824
24	0xbe00204d	-0.12512322
25	0x3d41a2f5	0.04727455
26	0x3e3d6cf0	0.18498588
27	0xbdae407e	-0.08508395
28	0xbe633924	-0.22189766
29	0x3e45f423	0.19331412
30	0xbdcd4860	-0.1002357
31	0x3e276a5b	0.16349165
32	0x3cb3f848	0.021968976
33	0xbc31643c	-0.01082712
34	0x3dcd63ba	0.10028787
35	0x3e90baff	0.28267667
36	0x3e470747	0.1943637
37	0xbe289b07	-0.16465388
38	0xbdc18de6	-0.09450893
39	0xbd895c30	-0.067070365
40	0x3ea9a1ca	0.33131248
41	0x3e602917	0.21890675
42	0xbc9d420d	-0.019196535
43	0x3de4903e	0.111603245
44	0xbdc98698	-0.09840125
45	0x3db49e1b	0.08819219
46	0x3d496d4f	0.04917651
47	0xbe05a819	-0.13052405
48	0x3da097bd	0.07841442
49	0x3e6eeb98	0.2333206
50	0x3e10780d	0.14108296
51	0xbd12d878	-0.035850972
52	0x3c0f620b	0.008751403
53	0xbcdd68e2	-0.027027551
54	0x3e829b0c	0.25508916
55	0xbde21883	-0.110398315
56	0x3e71e253	0.23621492
57	0xbd980379	-0.07422537
58	0x3ce09ab1	0.027417513
59	0xbe109702	-0.14120105
60	0xbcf9ab90	-0.030477315
61	0x3ec96773	0.39336738
62	0xbd8a23c9	-0.06745107
63	0x3e7ce909	0.24698271
64	0xbdd160c4	-0.10223535
65	0xbd7c8354	-0.06164868
66	0xbd2890c8	-0.0411537
67	0x3adb157e	0.0016714779
68	0x3d9d647f	0.07685184
69	0x3dbac1ae	0.09118973
70	0x3da92515	0.08259026
71	0x3e54d605	0.20784767
72	0x3e915945	0.2838842
73	0x3e3367dd	0.1752009
74	0xbe1e7f13	-0.15478162
75	0xbd3683cd	-0.04455929
76	0x3e4ce8b3	0.20010643
77	0x3e88b080	0.2669716
78	0xbcd2c67f	-0.025729416
79	0xbe814c1f	-0.25253388
80	0x3ea0f1e7	0.31434557
81	0x3de5b981	0.11217023
82	0x3c607bd6	0.0137014
83	0xbc79682e	-0.015222592

fc3.weight f4 [10, 84]
0	0xbea35f7b	-0.31908783
1	0x3e073d88	0.13207066
2	0xbe33218e	-0.17493269
3	0x3b0bdaf0	0.0021340214
4	0x3e1a47da	0.15066472
5	0xbe686e57	-0.22698341
6	0x3d529dd4	0.051420048
7	0x3dc16f0b	0.09445008
8	0x3c9ab285	0.018883953
9	0xbdfed5cd	-0.12443123
10	0xbe1f5d0e	-0.15562841
11	0x3db872b8	0.09006256
12	0xbdef07ab	-0.116713844
13	0x3d57adf1	0.052656118
14	0x3d547ee2	0.051878817
15	0x3dacb893	0.08433642
16	0xbd6e4040	-0.058166742
17	0x3ddc7238	0.10763973
18	0xbe13fba8	-0.14451468
19	0x3c895907	0.016766084
20	0xbe947063	-0.28991994
21	0xbcd971a4	-0.026543446
22	0xbd08050d	-0.03320794
23	0xbcac204e	-0.021011498
24	0xbd8c8d9e	-0.06862949
25	0x3d386ad5	0.045023758
26	0xbe19f82a	-0.15036073
27	0xbdbdab61	-0.092612036
28	0x3d1db710	0.03850466
29	0xbe8b22e2	-0.2717505
30	0xbd63b1a0	-0.05558932
31	0xbdf7dbf3	-0.12102499
32	0xbe205e11	-0.15660883
33	0xb9f2b8e0	-0.0004629558
34	0xbe43339d	-0.19062658
35	0x3a136005	0.0005621913
36	0x3ca5c825	0.020237038
37	0x3dc59e7b	0.096493684
38	0x3b241a5e	0.002504013
39	0xbd78f40d	-0.06077962
40	0xbbb0d496	-0.005396436
41	0x3e318b12	0.17338207
42	0xbe03d37a	-0.1287364
43	0xbe237d85	-0.1596585
44	0xbdd1520a	-0.10220726
45	0xbe0031df	-0.12519024
46	0x3d00fdc9	0.03149203
47	0xbe18eabb	-0.14933293
48	0xbe21baab	-0.15793864
49	0xbc8064aa	-0.015673
50	0xbd0429fd	-0.032266606
51	0x3d23898a	0.03992609
52	0x3dd2fafa	0.10301776
53	0xbe137623	-0.14400534
54	0xbd34f5d1	-0.04417974
55	0x3d90125b	0.07034751
56	0xbac02440	-0.0014659241
57	0x3da200f3	0.07910337
58	0xbd37cd8a	-0.04487375
59	0x3db4b4f4	0.088235766
60	0x3d4c7f1a	0.0499259
61	0x3df0ce0d	0.11758051
62	0xbd82a0b7	-0.0637831
63	0xbd3b9e78	-0.045805424
64	0x3da8b632	0.08237876
65	0xbd558e21	-0.052137498
66	0xbbdfc19b	-0.0068284995
67	0xbe0a0bac	-0.13481015
68	0xbd66a7ef	-0.056312498
69	0xbd2c9f1b	-0.042143922
70	0xbddc3c98	-0.10753745
71	0x3da3d3bd	0.0799937
72	0x3c8e63a5	0.017381499
73	0xbe2c8e0f	-0.16851066
74	0x3de96940	0.11397028
75	0x3c694bcf	0.014239266
76	0x3e0fef1b	0.14056055
77	0xbe494377	-0.19654642
78	0xbe384da6	-0.1799837
79	0x3e177258	0.14789712
80	0x3ae1bcc2	0.0017222392
81	0x3d655623	0.05599035
82	0xbc81765c	-0.015803508
83	0x3b218ae6	0.002464944
84	0xbd9ae6ce	-0.07563554
85	0xbe63dd5e	-0.22252414
86	0x3c0e58fd	0.008688209
87	0x3ce251ee	0.027626958
88	0x3dc4205b	0.09576484
89	0xbe63381a	-0.2218937
90	0xbd83772d	-0.06419215
91	0xbe678fc3	-0.22613434
92	0xbdd8e888	-0.10591227
93	0x3e059520	0.13045168
94	0x3bd121b6	0.0063821925
95	0x3cafd87b	0.02146553
96	0xbe92d0ba	-0.2867487
97	0xbe166de3	-0.14690356
98	0x3e0db927	0.13840161
99	0xbdeb96d7	-0.1150338
100	0x3d261688	0.04054883
101	0xbe034a03	-0.12821202
102	0x3e5d5360	0.21613836
103	0xbe40d70d	-0.18832035
104	0xbce40b67	-0.027837468
105	0xbd97adee	-0.07406221
106	0xbdb18945	-0.0866876
107	0xbdd498d3	-0.103807114
108	0xbd8ed7e4	-0.069747716
109	0xbda97c89	-0.08275706
110	0xbd9a2b22	-0.07527758
111	0xbc2dfaa4	-0.010618839
112	0x3e63dc16	0.22251925
113	0x3ca1b9a9	0.01974185
114	0xbe295b5b	-0.16538756
115	0xbda03ed3	-0.07824483
116	0x3d594fc0	0.05305457
117	0xbdd3fe0b	-0.10351189
118	0xbebdf83a	-0.37103444
119	0xbddd4bb7	-0.10805457
120	0x3d5fb903	0.0546198
121	0xbe1c1485	-0.15242203
122	0xbd6d9d3a	-0.05801127
123	0x3c7548ff	0.014971017
124	0xbdf48ad7	-0.11940544
125	0xbe3ad09e	-0.18243644
126	0xbbf9e64d	-0.007626331
127	0x3b4d59e2	0.0031334092
128	0xbd5b0a3c	-0.053476557
129	0xbce4f2f9	-0.02794789
130	0xbe86409b	-0.26221165
131	0x3d2f8c87	0.042858627
132	0xbe1227ea	-0.14273039
133	0xbd870f4b	-0.06594714
134	0xbe862eef	-0.26207682
135	0xbcc813ab	-0.02442344
136	0xbdf47218	-0.11935824
137	0x3c80a3f7	0.015703185
138	0xbde809cc	-0.113299936
139	0xbe0f947e	-0.14021489
140	0xbdea742a	-0.11447938
141	0x3d72c4ff	0.0592699
142	0x3d3e6d81	0.04649115
143	0x3de57e3e	0.112057194
144	0x3b2c2d21	0.0026272016
145	0xbe755ea7	-0.23961888
146	0xbd11c450	-0.03558761
147	0xbe2ce871	-0.16885544
148	0x3e2957c6	0.16537389
149	0xbe4151d9	-0.18878879
150	0x3b3cee86	0.0028828694
151	0x3e178ced	0.14799853
152	0xbe1c7755	-0.15279897
153	0xbe603ed7	-0.21898971
154	0x3e574578	0.21022594
155	0x3c6158f5	0.013754119
156	0xbe6270dc	-0.22113365
157	0xbe978cf7	-0.29599735
158	0x3d942bba	0.07234903
159	0xbdc42010	-0.09576428
160	0xbe624b81	-0.22099115
161	0xbcca47e1	-0.024692478
162	0xbdd75230	-0.10513723
163	0x3e015135	0.12628634
164	0x3cca72a7	0.024712874
165	0x3db236ad	0.08701835
166	0x3de26796	0.11054914
167	0xbdd59a79	-0.10429854
168	0xbd78025c	-0.060549125
169	0xbbde868a	-0.0067909406
170	0x3d04d4f3	0.032429647
171	0xbdf56ab1	-0.119832404
172	0xbe0bc81f	-0.13650559
173	0x3dc48e0d	0.095974065
174	0xbc000537	-0.007813743
175	0xbdbc6ea5	-0.09200791
176	0xbe4b972d	-0.19881888
177	0xbc8a08d5	-0.016849915
178	0x3caa3dec	0.02078148
179	0x3ddc0f74	0.10745135
180	0xbd9dc39d	-0.07703326
181	0xbdb4b857	-0.088242225
182	0x3dad68c5	0.08467249
183	0x3e2f258e	0.1710417
184	0xbe4f1b3b	-0.20225231
185	0xbde20a31	-0.110371
186	0xbdf11a9e	-0.11772655
187	0x3de8fbb7	0.11376136
188	0x3dbf2bc8	0.093345225
189	0x3d86d8da	0.0658433
190	0x3e1ad356	0.15119681
191	0x3b088fe4	0.0020837719
192	0x3d3d8bca	0.04627589
193	0x3d6cb76b	0.05779211
194	0x3e38e886	0.1805745
195	0xbd385c05	-0.04500963
196	0x3d864e69	0.06557924
197	0xbd1b841a	-0.03796778
198	0xbdeef284	-0.1166735
199	0xbc210ccb	-0.00982971
200	0xbe0ff105	-0.14056785
201	0x3d805e39	0.062679715
202	0xbe3cceaa	-0.18438211
203	0x3d7c94c9	0.06166533
204	0x3df29fc3	0.118468784
205	0x3e2192c9	0.1577865
206	0xbce1243e	-0.027483102
207	0xbd2a9de2	-0.041654475
208	0xbd32999d	-0.04360353
209	0x3d135001	0.03596497
210	0x3c084e70	0.008319482
211	0x3d897fd3	0.06713834
212	0x3d2bda9e	0.041956536
213	0xbdc417f6	-0.09574883
214	0xbcc6518a	-0.024208803
215	0xbd3812fe	-0.044939987
216	0x3e28cc8f	0.16484283
217	0xbcad7f58	-0.021178886
218	0x3dd5bdc9	0.10436589
219	0x3e20315a	0.15643826
220	0x3d81644f	0.063179605
221	0x3d55d92b	0.05220906
222	0xbded311e	-0.11581634
223	0x3e1adb41	0.15122701
224	0xbdd44f95	-0.103667416
225	0x3e01e510	0.12685037
226	0x3da9635b	0.08270904
227	0x3d0c2267	0.034212496
228	0x3dc2694d	0.09492741
229	0x3c78bbcc	0.015181493
230	0xbd824a85	-0.0636187
231	0xbbf3bb43	-0.007438095
232	0xbcad86a5	-0.021182368
233	0xbe13f4f8	-0.14448917
234	0x3d51f2ff	0.05125713
235	0xbd1c1215	-0.038103182
236	0xbe1e32a6	-0.15449008
237	0xbd707b1d	-0.05871116
238	0xbe0847ca	-0.13308635
239	0xbe34a018	-0.17639196
240	0x3dfabcfa	0.12243076
241	0x3dd0805e	0.10180734
242	0xbc747c8b	-0.0149222715
243	0xbdc97d1d	-0.098383166
244	0x3db238d7	0.087022476
245	0x3d4c4bf7	0.049877133
246	0x3d62e89f	0.055397626
247	0xbe672a6e	-0.2257478
248	0xbcb29b2c	-0.021802507
249	0xbe1dc5a4	-0.15407425
250	0xbd816c61	-0.063195
251	0xbdddd35e	-0.10831331
252	0x3c793428	0.015210189
253	0xbce9c33e	-0.028535482
254	0xbe0dc4b8	-0.13844573
255	0xbc1e2473	-0.009652245

fc3.bias f4 [10]
0	0xbe50a79a	-0.20376435
1	0xbe2b780f	-0.16745017
2	0xbdb72064	-0.08941725
3	0x3d9df888	0.07713419
4	0x3e716d0c	0.23576754
5	0xbe0d6074	-0.13806325
6	0xbc86cc1d	-0.01645475
7	0xbd91e19f	-0.07123112
8	0x3db38130	0.08764875
9	0xbe054921	-0.13016178
